color_model/0.944700_epoth_0_model.pth (torch, 750661 bytes, 74 tensors)

feature.0.weight f4 [8, 3, 5, 5]
00000000: 51ec f23c 2651 13bd 3c33 a73d fd59 22be
00000010: ca74 603d a700 173e 928f e6bd 0d50 64be
00000020: 7821 a9be 4121 8abe c26f 1dbc 4806 693d
00000030: e34b cc3d 6985 23be 14f9 00bd 3016 0d3e
00000040: 3611 613e 6224 093e 28ac 863b a2a3 8dbb
00000050: 3927 19bd b898 353e beaf 053e afd1 45bc
00000060: e07d 28be db9c e5bc 7095 5fbe 8898 3cbe
00000070: b827 00bf 77d4 17bf 224d 6a3e ab20 38bd
00000080: bb9c f9bd 9eaf 05bf 357d 24bf 910a 783e
00000090: 999b 923e 5c15 67bd 57f1 67be 50c6 a4be
000000a0: 03a9 a23e 2c81 bc3e 4bc9 663e 5630 a73d
000000b0: d5e0 98be e287 df3e 14e6 e63e a3e2 403e
000000c0: a5e7 f13d da11 88bd b770 ae3d bd00 37bd
000000d0: 9f21 95bd 1515 70be 9388 a6be 8f61 3c3e
000000e0: 829b 733a 3033 1ebe 235c b2be d24e 89be
000000f0: 701c 173e 96f0 493e c227 023d bc69 1ebe
00000100: 92ee 0fbd 5453 853e 3ae5 df3e ee3b b13e
00000110: 1423 de3d 4b11 14be 8c89 9b3e 5c52 803e
00000120: 1ffb 9c3e d80c 8e3e 0a3c c2b9 01dc 233e
00000130: e86e 163c 85a1 2dbd 9d08 173e 58ff fa3c
00000140: 2c45 843e 453e 53bc f14c 57bd 5e00 67bd
00000150: 280b 47bb d35c 733d f494 d2bc 3a42 36be
00000160: 5e84 7ebe 2ae9 debd c7dd 693e 845e efbd
00000170: 2984 93be 85ea 80be 127e 1ebe c220 d23d
00000180: 1099 1e3d 13e3 45be 7b73 24bc 6554 023c
00000190: 549a d23e 3c95 7d3e 3c6a 253e 7213 b53c
000001a0: 2b3b 2fbe c115 043f 941e 7b3e 914f cf3d
000001b0: 2629 183c 0207 32be 0b4e f93e d889 113e
000001c0: 6a28 c1bd aa0f 7cbe 8646 cebe 5a93 493e
000001d0: edc6 13bd 52c7 06be 1c8f bcbe 06d7 e6be
000001e0: 5ad2 693e 99ee 973d d0e6 edbd 3653 cabe
000001f0: 0fdc cfbe 525a 003f ccf0 a83e 0dec aa3e
00000200: e0ff 503e e6a0 7dbd 6732 bd3e 0330 b53e
00000210: 604d 663d 960a 063e f153 383c 082f be3e
00000220: a36a 3f3e 56fc ecbd cc6e 8ebd bee7 3abe
00000230: 7553 263e d240 d53c 76e3 97be 043f a3be
00000240: 940f c5be fd0b 2f3e 0c8b f8bd 63f7 7abe
00000250: ff32 c7be 206a afbe b5a7 7bbe 42f0 f5bc
00000260: 5a32 433e 44d1 a93e fc9f 47bd 18cc 0ebe
00000270: aecd 013f 522a bdbe 8300 17bf 2d42 ca3e
00000280: 756b 03be e45d 8d3e 68fd 5abe a74f 2abe
00000290: fa59 7d3e e8f8 0ebe 6772 413c 2359 9b3e
000002a0: 153f bd3e b0cc 7bbd 3d11 febd 2ac9 e6bb
000002b0: a825 d2bd 8156 8bbd 0327 79bd 40e0 20bd
000002c0: dc8d 33bd 9c5e fd3d bc3d 933e 063c 9a3d
000002d0: a442 853c 17eb fa3e 98be 26bf 34ba 50bf
000002e0: e39c c93e 00b5 f4bd 864b 8e3e 52fb ddbe
000002f0: 6f8e a1be 9901 8d3e 5d6a a83d ff4d d6bd
00000300: 8fe0 cc3e 6de1 793e b23e 1e3d c981 673c
00000310: 2fe0 c6bc 1ddb 813b 45b5 93bd 92f8 1f3e
00000320: 5ff5 4e3e d344 093e 3d89 083e d194 763e
00000330: 099e 5bbe 6c02 023e d508 563e 18b8 2cbf
00000340: 31b4 49bf 1311 6f3e d273 d23d d7e1 443e
00000350: 9a3e dfbe 0c13 9ebe 3008 353d 854c 053e
00000360: da0c f6bd 99a4 a23e 6dcb e83e 3ffa 4fbe
00000370: 56bd e73d 41f9 8ebc 6118 01be 030f f13b
00000380: f777 1fbe 54d1 f3bd a1b6 8dbd 3865 e03d
00000390: fb52 1c3e 5791 613e 8b2b 6ebd d7f9 883d
000003a0: e5c0 80bc adcf 003e 18c4 7e3e 348e 37be
000003b0: 4256 4bbe e73c 623e e56f 9a3e abdf fb3d
000003c0: f58d a7bd e0d0 87be 2ff3 6ebe deee 903d
000003d0: c2e8 5e3c 61de d5bc 95b8 07be 3e5e 353d
000003e0: 8e36 99bd f92f d33d 0dcc 40be 6553 e8b9
000003f0: 533b c33d c9d4 a43e 62c2 a53e 5f34 15be
0.0296537 -0.03596606 0.08164069 -0.1585464 0.05479888 0.14746343 -0.112578526 -0.22296162
-0.33033347 -0.26978496 -0.009609165 0.056890756 0.09975412 -0.1596886 -0.03148754 0.13777995
0.21979222 0.13392785 0.004109878 -0.004322485 -0.03739092 0.17734039 0.13055322 -0.012073918
-0.16454268 -0.028028896 -0.2183435 -0.18417561 -0.50060606 -0.5930857 0.22880986 -0.04495303
-0.12188097 -0.52221096 -0.6425355 0.24222781 0.28634337 -0.056416854 -0.22650658 -0.3218255
0.3176957 0.368173 0.22537725 0.08163516 -0.29859033 0.43658358 0.4509741 0.18836455
0.11811761 -0.0664403 0.085175924 -0.04467844 -0.07281803 -0.23445542 -0.32526073 0.1839659
0.0009292887 -0.15449214 -0.3483592 -0.26817948 0.14756942 0.19720683 0.031776197 -0.15470022
-0.035139628 0.26040137 0.43729573 0.34616035 0.10846534 -0.14459722 0.30378377 0.25062835
0.3066034 0.27744174 -0.00037047296 0.16001894 0.009181716 -0.042390365 0.1474938 0.030639336
0.25834024 -0.012893264 -0.05256361 -0.056396835 -0.003037164 0.059414696 -0.025705792 -0.17798701
-0.24855182 -0.10884316 0.22838508 -0.11687949 -0.28811768 -0.25178924 -0.1547778 0.10260154
0.03872019 -0.19324903 -0.010037298 0.007954692 0.41133368 0.2476396 0.16153806 0.022103999
-0.17112415 0.51595694 0.24523383 0.10122598 0.009287154 -0.17385486 0.48692355 0.1421274
-0.094315365 -0.2461535 -0.4028818 0.19685116 -0.036078382 -0.13161972 -0.36827934 -0.45085925
0.22834149 0.07418556 -0.116162896 -0.3951661 -0.4059758 0.5013782 0.32996213 0.33383217
0.20410109 -0.061921023 0.36952516 0.35388193 0.056226134 0.13089976 0.011250482 0.37145257
0.18693022 -0.11571567 -0.069547266 -0.18252465 0.16242774 0.026031885 -0.29665726 -0.31884015
-0.38488448 0.17094417 -0.12135896 -0.24508433 -0.38906094 -0.34260654 -0.24575694 -0.03002179
0.19062176 0.3316747 -0.048736557 -0.13945043 0.5070447 -0.3694635 -0.58985156 0.39503613
-0.1283396 0.27610695 -0.2138573 -0.16631947 0.24741355 -0.13962138 0.011807061 0.30341443
0.3696219 -0.061474502 -0.12405632 -0.0070430236 -0.102610886 -0.06803609 -0.06082822 -0.03927636
-0.04383646 0.12371561 0.28758037 0.0753098 0.016267128 0.49007484 -0.65134573 -0.81534123
0.39377508 -0.119485855 0.27791995 -0.43355805 -0.3155398 0.2754028 0.08223412 -0.10464095
0.40015075 0.244024 0.03863401 0.014130064 -0.024276821 0.003962888 -0.07212309 0.15622166
0.20210789 0.1340516 0.13333602 0.24080206 -0.21447004 0.12696236 0.20901807 -0.67468405
-0.78790575 0.23346357 0.10275997 0.19226776 -0.4360245 -0.30873907 0.04419726 0.13017471
-0.1201417 0.31766203 0.45467702 -0.20310305 0.1131541 -0.017452838 -0.12606956 0.007356526
-0.15573107 -0.119051605 -0.06919599 0.10956806 0.1526603 0.22028099 -0.058146995 0.06688278
-0.01571698 0.12579222 0.24879491 -0.1792534 -0.19857123 0.22093545 0.30163494 0.12298521
-0.08181373 -0.26526546 -0.23334955 0.0707681 0.0136052985 -0.026107015 -0.13254006 0.04427933
-0.074811086 0.103118844 -0.18827839 -0.00044312622 0.095327996 0.32193592 0.32374865 -0.14570759

feature.0.bias f4 [8]
00000000: e403 20bd 322c 06be 727c 903d 7963 3c3d
00000010: d424 c23d 1618 183e f72c a23c cbd7 debd
-0.03906621 -0.13102797 0.07054986 0.045993302 0.09479681 0.14852938 0.019796832 -0.10881003

feature.1.weight f4 [8]
00000000: 0e82 373f 10c4 463f 7cb7 ab3f 9bce 423f
00000010: a686 473f ac70 133f ce9b 653f 4ed5 2d3f
0.7168282 0.7764292 1.341537 0.76096505 0.7793983 0.575938 0.89690864 0.679036

feature.1.bias f4 [8]
00000000: 4907 713e c3cd 493e f025 c93f 23f4 ad3e
00000010: 9f5a 903e 4dc4 dd3e 5218 233d afa1 85bf
0.23537935 0.19707398 1.5714703 0.33975324 0.28194138 0.43313828 0.039818116 -1.0439967

feature.1.running_mean f4 [8]
00000000: af0e 15bf 1e1f b5be efe5 753e a64c 2abe
00000010: f16f 21bc 64e9 91bf 0638 043f 43e5 5ec0
-0.5822553 -0.35375303 0.24013494 -0.16630802 -0.009853349 -1.139935 0.51647985 -3.482743

feature.1.running_var f4 [8]
00000000: f8db cb41 56e3 de41 be6b ca3f e48d d441
00000010: f1b3 be41 2164 0742 999d 7440 6ca6 4542
25.482407 27.861004 1.581413 26.569283 23.837862 33.847782 3.822119 49.41252

feature.3.weight f4 [8, 8, 3, 3]
00000000: b13a a7be 24de 26bc ce9a a3bd 0470 c5be
00000010: cd1a 33be 2c9e 89be f9fb 853d d8f8 14bd
00000020: 7018 e5be fa96 213e 054a 753e fec3 1d3e
00000030: 39d1 203e e0d6 4e3c b1d9 be3e 76cb f7bc
00000040: 04d8 bf3c 0357 e43d c838 363d 53ba 9dbe
00000050: 7f63 733e 0a73 06bf 9811 3cbf 617c 8c3e
00000060: 038d f33e daab 123f 21bb 52bd d9df bfbd
00000070: b4c3 3a3d 98da 4abe 9375 4f3e 183d d53e
00000080: 15ea ec3d 1a43 d53d b28a 363e 023b 3d3e
00000090: b0bf adbd 936b 14bd 5cca dfbe 64ca 0ebe
000000a0: 08b6 e6be 9851 1fbf 7bfd 24be 65bc 0ebe
000000b0: ba97 4e3d 12d5 233e 6b64 0bbe bb86 dfbd
000000c0: 4148 763d 13de 973c ef06 353e aa89 c8be
000000d0: bc7d c2bd f3ac a93e a576 27be e04b 0c3b
000000e0: 8d76 17be 60d7 d9bd 162d 773d 0f77 91bd
000000f0: 02a2 613e 75a5 443e af00 033d f5ef c53e
00000100: 1317 663f 5f76 653f 7606 9dbc 6ed2 1f3f
00000110: c584 8f3e f85c 2bbf 5acd 02bf 7cb4 58bf
00000120: f2ce b73d 1fb4 e7bd 69ad f03d 3331 cf3c
00000130: 2f46 1d3e 45f4 2a3e 8271 efbe 3d1e 953e
00000140: b3ea 85bb 405e 4fbe db10 48be 2b3e 42bd
00000150: bbe1 98be f695 82be 3201 d9bd 3c10 29be
00000160: 80c4 e43c 0687 91bc 6e2a 203e e122 073f
00000170: 8960 c33e 95e3 9cbe 69f2 31bf 7c33 c2bd
00000180: 75cb 2d3d a4ee 30be a2b0 9bbb a101 e6be
00000190: 8ab7 69bd 52ed a2bd 0452 143d a1d0 973e
000001a0: fc08 143f 259e 5cbe e8ed 95bd b90b f43e
000001b0: 7d66 8a3e 846c a23d 1061 c63d 1836 6e3c
000001c0: 2c3c bdbd 52fe a03e 5cbb 363d d8b5 11bf
000001d0: 704c febd d986 c7be 7eca 95be 7dda 0c3e
000001e0: b2c6 0fbd 3f8d 12be d134 b03d 0e48 d1bd
000001f0: 53d8 bcbd 67d4 6a3e a1c1 cf3e e661 073e
00000200: 7055 1c3e 08df b4be 10ab 41bf 66c7 3cbd
00000210: f9f1 9d3e 2ba7 ad3b ae8b 013e 6074 24bf
00000220: db31 9fbd 3a9d 4c3f efd2 1e3d 7295 223e
00000230: 45dd 4e3f 5fb5 b5bd 6a2a 173d 99ca f33e
00000240: 0e80 d5bd 9e04 8a3e ba6d b8be fca3 313e
00000250: 4441 2d3f cf7f 5a3e 91c5 ee3d adca cf3e
00000260: d185 5d3e ff06 f4bd 34bc bcbd 581b 86be
00000270: 10c2 f43d 0319 ebbd 07bf cdbe 0108 acba
00000280: a2fd 6dbe 5de2 a9bd cc67 adbd 3e76 e73d
00000290: a572 943e dfb0 88bd 5ca6 e93e 94d7 923e
000002a0: 67b6 86be 5c4b b3be 7fd0 a0be d65d 523d
000002b0: cc57 86be afd6 213e 3055 32be 5c98 b2be
000002c0: 3b3d cdbe 68c9 733d 8b09 73be ff7c bcbe
000002d0: 1f6e 0ebf 3cbe c93d cb99 6c3e b2d8 76be
000002e0: e0ad a33e 85f5 353f d3dc 2a3d cdc5 fb3e
000002f0: 246b 9f3e f7d9 a0be 2e14 14be 326a c53c
00000300: 3cb7 2fbd 2b2f 64bd 97e3 09be cca2 b43e
00000310: 6e55 973e 8514 a13e 7d1c 3b3e 3c89 a13e
00000320: bb8b 9a3c 9c7f 623c 302e e33d 901b 143e
00000330: 66a8 83bd 6d28 cdbe 3818 70be fbfb 0f3e
00000340: 359a c2be 4339 abbe 4594 073f 3bf6 ae3e
00000350: 5867 cb3d 3ed9 3a3f 2321 803f 6e91 5e3f
00000360: 08c9 3ebe 0250 74be b3b0 7dbe 1a2e 293e
00000370: eabf 303e 88d4 383d a40e e33d 6e0d 533e
00000380: 93a5 703e e980 a43e 9ff6 503e aeb0 313f
00000390: d1fb be3e eda7 813e 1b35 273f 4e88 7d3c
000003a0: 35f8 fdbe 3417 1ebe 7169 553e dc56 98bc
000003b0: 2e83 82be 1d80 2dbe 5954 1a3e ee82 82bd
000003c0: ce6d 8ebe b5ca 053f caa9 64bd 222b 19bf
000003d0: f384 9abe ea67 81be 89d0 d8be cff3 edbe
000003e0: 21e3 73be 8654 aebe a989 c0bd f568 7bbd
000003f0: a279 853e 9efb 153d 8e91 b1be 9060 dabd
-0.32661965 -0.010184798 -0.07988511 -0.38562024 -0.17490692 -0.26878488 0.065422006 -0.03637013
-0.44745207 0.15780249 0.23954017 0.15406796 0.15704812 0.012624472 0.3727546 -0.030248385
0.023418434 0.11149409 0.044487745 -0.30806217 0.23768423 -0.52519286 -0.73464346 0.27438644
0.4756852 0.57293475 -0.05144799 -0.093688674 0.045596793 -0.1980995 0.20259695 0.41648173
0.11568085 0.10413189 0.17826346 0.18479541 -0.08483827 -0.036235403 -0.43709075 -0.13944393
-0.45060754 -0.6223388 -0.1611232 -0.13939054 0.050437666 0.15999249 -0.13612525 -0.1091437
0.0601275 0.01853851 0.17678426 -0.3916753 -0.09496638 0.33139762 -0.16353853 0.002140753
-0.14791317 -0.10636783 0.06034573 -0.07102787 0.22034457 0.19203742 0.031983074 0.38659635
0.8987896 0.89633745 -0.01916812 0.62430465 0.28030983 -0.66938734 -0.5109459 -0.846504
0.089750186 -0.11313652 0.11751825 0.025292015 0.15358804 0.16694744 -0.46766287 0.29124632
-0.004086816 -0.20250797 -0.1953768 -0.04742257 -0.2985972 -0.25505036 -0.10595931 -0.16510099
0.02792573 -0.01776458 0.15641186 0.52787596 0.38159588 -0.3064238 -0.69510514 -0.09482476
0.04243036 -0.17278534 -0.004751281 -0.44923118 -0.057059802 -0.079554215 0.03621103 0.2965136
0.5782621 -0.21544702 -0.07320768 0.47665194 0.27031317 0.07930854 0.09686482 0.014539264
-0.092399925 0.3144403 0.044612274 -0.56918097 -0.12416923 -0.38970068 -0.29256052 0.13755222
-0.0351016 -0.14311694 0.08603824 -0.102188215 -0.09220948 0.22932588 0.40577415 0.13220939
0.15266967 -0.3532641 -0.75651646 -0.0460886 0.30848673 0.005299469 0.1265094 -0.64240074
-0.07773181 0.7992741 0.03877538 0.15877321 0.8080638 -0.088724844 0.036905684 0.47615507
-0.10424815 0.26956648 -0.36021215 0.17347711 0.6767771 0.21337818 0.116587766 0.40584317
0.21633078 -0.11915397 -0.092155844 -0.26192737 0.11951077 -0.1147938 -0.40184805 -0.0013124944
-0.23241284 -0.082951285 -0.08467063 0.1130185 0.28993717 -0.066743605 0.45634735 0.28680098
-0.26311037 -0.35018432 -0.3140907 0.05135902 -0.2623886 0.15804552 -0.17415309 -0.34881866
-0.40085778 0.059518248 -0.23734109 -0.36814114 -0.5563678 0.098507375 0.23105542 -0.241061
0.31968594 0.7107776 0.0417145 0.49174348 0.3113643 -0.31416294 -0.14460823 0.02409849
-0.042899355 -0.055709045 -0.13465725 0.35280454 0.29557365 0.31460968 0.18272586 0.31550014
0.018865457 0.01382437 0.11092794 0.1446364 -0.06428604 -0.40069905 -0.23446739 0.14060967
-0.38008276 -0.33442125 0.52960616 0.34172234 0.09931821 0.72987735 1.0010113 0.8694066
-0.18631375 -0.23858646 -0.24774437 0.16521493 0.1726071 0.04512456 0.11086777 0.20610592
0.23500662 0.321296 0.20406578 0.69410217 0.37301496 0.2532343 0.6531541 0.015474392
-0.4960343 -0.15438539 0.20841004 -0.018596105 -0.25490707 -0.16943403 0.15071239 -0.06372629
-0.2781815 0.5226243 -0.055825986 -0.5983144 -0.30179557 -0.25274593 -0.423466 -0.46475074
-0.23817112 -0.3404886 -0.094012566 -0.06137939 0.2606936 0.036616914 -0.34681362 -0.10662949

feature.3.bias f4 [8]
00000000: 8a94 c5bc 542d 183c 98a2 0e3e 6fd4 073d
00000010: 555a b73d 9e90 4a3d 5f36 a73c a0bc 5d3d
-0.02411868 0.009288151 0.13929212 0.033161577 0.08952776 0.049454324 0.020411668 0.054134965

feature.4.weight f4 [8]
00000000: 50cb ac3f db47 543f 8323 4c3f 9f27 433f
00000010: 249f 843f 2579 083f 9037 9d3f 1065 c53f
1.3499546 0.8292214 0.79741687 0.7623233 1.0361066 0.5330985 1.2282581 1.5421467

feature.4.bias f4 [8]
00000000: aa05 c63e 626e 283e 6f49 973e 5939 5e3e
00000010: 7ce5 2d3e 3138 143e d956 763e 487b 1a3f
0.38676196 0.16448358 0.29548213 0.21701564 0.16982073 0.1447456 0.24056567 0.6034436

feature.4.running_mean f4 [8]
00000000: dc9b 2abf b780 31bf e964 163f 8404 b7bf
00000010: 4853 a3bd 9110 3340 51b8 3fbf fbe2 dcbe
-0.6664407 -0.6933703 0.58747727 -1.4298253 -0.07974869 2.7978861 -0.7489062 -0.43141922

feature.4.running_var f4 [8]
00000000: 5855 b040 2b40 1440 c404 ab40 d6f0 bc40
00000010: 8943 2a41 8c06 8a40 9387 7240 9089 aa3f
5.510418 2.3164165 5.3443317 5.904399 10.641488 4.313299 3.7895248 1.3323231

feature.6.weight f4 [16, 8, 3, 3]
00000000: 07e4 473e 5c18 903d b78b 363e 9d15 b63e
00000010: 3282 c73c 2eac b53d d2fe 1c3e 9ea8 45bd
00000020: 94fa 3cbe 18fe 613e 3109 9e3d 7bf2 ca3d
00000030: d212 92bb fa02 f33e 22dc 0b3d 35f3 0ebf
00000040: 3668 bcbe 8abb c13c 3e81 c7be 7706 7dbd
00000050: ed86 633e e38a 06bf 6d1f 0fbe b98a 113f
00000060: 73e5 c4be d625 b1bb 4da8 403f 0c0b 86be
00000070: 5d9a 17be 7755 a0be b310 6b3b 77c7 373e
00000080: f0a3 d1bd 6a7b 3bbe f04e 673e 1f4d 1b3e
00000090: 138b 04bf ac2c 063c 0b2e acbe 267e 9d3d
000000a0: 591a db3e ee8d b2be c123 e23e 8e7e c53e
000000b0: 8f5a d53d ac22 0dbf b0a9 2ebe f3ec 243e
000000c0: 6b78 0e3e dcee 8e3d feb2 5d3e b232 f93e
000000d0: fc00 823e 7939 323e 1667 15be f4dc 2ebf
000000e0: 044c bbbd df74 0b3f 69ec abbe 2a91 b4be
000000f0: dbee 01be 4446 18bf 9232 10bf 6c83 be3c
00000100: ad3e e13c 5973 a2be b009 97be bad0 f63d
00000110: 5f00 e2bd eba7 833e f76e ecbd 25bf 513d
00000120: d8f0 5b3c 7ec1 97bf b918 2bbf 60d7 e03d
00000130: d19d 95be 48e7 81be 6982 8e3e 8378 17be
00000140: 8380 02bf 90e7 0b3e 53c7 b03d 0d65 e5be
00000150: fc6f 343e 3b7e 36bd 6a7b 9dbe 8d7d 49be
00000160: 353c 32be 6f97 c2be 4681 9e3e 8a2a 113e
00000170: d6d5 c03e d110 ddbb 018b e5bd 3157 3e3e
00000180: c0cc 65bf 07ef f9bd eaf2 ea3e 47c1 883e
00000190: eaad 5abe 3eca b43b b372 26bd 9ea4 83bd
000001a0: 5b8f 193e 4597 b03e 1933 2b3e 93ca 1b3e
000001b0: e79a 183d a237 8abe d875 00bf c846 9cbe
000001c0: d48b 6abd 453a 83be b0ea b4be 1f91 32be
000001d0: 464b 573d cb35 833e b1e5 433e 6531 be3d
000001e0: bd9a a8bd 3d35 c5bd 5d01 dabd 8761 c5bd
000001f0: 85aa a3bc 3b9b 553e aae3 383e 6f44 823d
00000200: 6548 283e 4e88 3dbe 4780 bcbe 3375 023e
00000210: 2b32 ae3d cced 24be b9e0 c63e 5f58 853e
00000220: 8c1c a03e ec1e b7be 50a0 86bd decc a43d
00000230: 117b 14be 06ea ae3e 09b0 80be 20d8 c93d
00000240: ff13 a03d c8c4 b9bd 487a 01bf 1bbf d33d
00000250: 6646 7d3e 44c6 743e de7c 04be 8cb5 523e
00000260: 8077 383e b785 89be d03b 00bb b978 18be
00000270: 5afb f33d a1ec 383f c2c1 9ebe 2db3 a43d
00000280: 8df1 623e be2b ecbe 9a13 9a3e e59e ca3e
00000290: e4e4 6fbd d99d 5bbd 5908 4cbd dd5d 37be
000002a0: d49c 87be b927 003d dc6f 8dbe 0960 dabe
000002b0: 3b78 cebc 3ebd 82be 7f4e 893d 94ea ca3e
000002c0: d923 943d 8643 17bd 79ac 063d 942f 3cbe
000002d0: b98d 15be e80c a6be 29e5 c73d 6f29 563e
000002e0: da4b 073e a785 f43d df35 0f3e 1b21 b0bd
000002f0: b002 8fbe 7f11 97be 83c0 b83e 8098 a23e
00000300: 9fae 90be abe5 91be 14fe dabd 6aee d1ba
00000310: ccee 703e 2e97 aa3e 3b4d 673e ae3d 003d
00000320: 8829 36bf d646 adbe 1d32 dabe 7d83 e2be
00000330: 0cf7 aabd 84de fa3e 4897 543f 4a52 adbd
00000340: 18f9 80bd 7ac6 94be 28ab c33e 0a2e 1f3f
00000350: da4d 5c3c c624 93be e823 25be e46a 8a3d
00000360: bff1 a93d 2301 49bd d897 9f3a 43ec cfbd
00000370: 40f1 d0be 70c2 123e 5dfb 95be 9720 8cbe
00000380: 78b1 9c3e 3d9b 6fbe 80f6 bf3e e430 fc3e
00000390: 8969 cabe 4bd6 ecbd 5e64 f53e b90c 86be
000003a0: fbd4 263e 4b03 093f c013 993d dfdd 39be
000003b0: 0c2c edbc 249c 5abe 655b cebc 0f2b 923d
000003c0: 0a57 0f3a d730 ab3e e8cb 2b3f c4b8 273e
000003d0: ce56 283e 1b65 9b3e 9fbc 12be 0e30 81be
000003e0: 50fc 8d3d 8861 33be c2fa 90be b609 9b3d
000003f0: a351 d6be da50 debd 8fbe 203d cb07 63be
0.1952058 0.07035896 0.17826734 0.35563365 0.024354074 0.08870731 0.15331581 -0.04825651
-0.18454963 0.22069585 0.07716597 0.09909531 -0.00445781 0.47463208 0.034145482 -0.55839854
-0.36798257 0.023648996 -0.3896579 -0.061773743 0.22219439 -0.52555674 -0.13976832 0.568523
-0.38456306 -0.0054061217 0.75256807 -0.26180303 -0.14804979 -0.31315205 0.0035868108 0.17947184
-0.10236347 -0.18308797 0.22588706 0.15166138 -0.5177471 0.008189362 -0.33628878 0.076900765
0.4279354 -0.3487391 0.44167903 0.38573116 0.10417663 -0.5513103 -0.17056918 0.16106014
0.13913123 0.069791526 0.21650311 0.4867149 0.25391376 0.17404737 -0.14590105 -0.683059
-0.09145358 0.54475206 -0.33578804 -0.35267 -0.12688772 -0.59482217 -0.56327164 0.023256026
0.027495706 -0.31728628 -0.29499578 0.1205153 -0.11035227 0.2571405 -0.11544602 0.05120768
0.013424121 -1.1855924 -0.668346 0.109785795 -0.29221967 -0.25371766 0.2783387 -0.14792065
-0.50977343 0.13662553 0.08631768 -0.44803658 0.17620844 -0.044553977 -0.3075822 -0.196768
-0.1740578 -0.3800616 0.30958003 0.14176384 0.37663144 -0.0067463894 -0.112081535 0.18587948
-0.8976555 -0.12203794 0.45888454 0.2670996 -0.21355405 0.005517273 -0.04063673 -0.064278826
0.14996092 0.3449041 0.16718711 0.15213995 0.0372571 -0.2699557 -0.50179815 -0.30522752
-0.057262257 -0.25630394 -0.35335302 -0.17438172 0.05256202 0.25626978 0.19130589 0.09286765
-0.08232639 -0.09629295 -0.10644791 -0.096377425 -0.019978771 0.20859997 0.18055597 0.06360709
0.16433866 -0.18509027 -0.36816618 0.1274002 0.085056625 -0.16106337 0.38843325 0.26043984
0.3127178 -0.3576578 -0.06573546 0.08046888 -0.14500071 0.3416292 -0.25134304 0.09855676
0.07816314 -0.09070736 -0.5057721 0.10339185 0.24733886 0.23903757 -0.12938258 0.20577067
0.18014336 -0.2685983 -0.00195669 -0.14889802 0.11913176 0.7223607 -0.310072 0.080419876
0.22162457 -0.46127123 0.3009308 0.39574352 -0.058567896 -0.053617332 -0.04981265 -0.179069
-0.26486838 0.031287882 -0.27624404 -0.42651394 -0.025203815 -0.25535005 0.06704425 0.39632094
0.072334 -0.03692963 0.032879326 -0.18377525 -0.14604844 -0.32431722 0.09760506 0.20914243
0.13212529 0.11939555 0.13985394 -0.08600064 -0.27931738 -0.29505536 0.36084375 0.31756973
-0.28258225 -0.28495535 -0.10692993 -0.0016016487 0.23528594 0.33318466 0.22588055 0.031308822
-0.7115712 -0.33843106 -0.42616358 -0.44240943 -0.08347902 0.4899789 0.83043337 -0.08462961
-0.06297511 -0.29057676 0.3821652 0.62179625 0.013446296 -0.28738993 -0.16126978 0.06758669
0.082980625 -0.04907335 0.001217599 -0.10152485 -0.4080906 0.14331985 -0.29293337 -0.27368614
0.30604148 -0.23399062 0.37492752 0.4925605 -0.39533642 -0.11564311 0.47928137 -0.26181582
0.16292183 0.5352065 0.0747447 -0.18151043 -0.028951667 -0.21348625 -0.025190065 0.07137119
0.0005467987 0.334357 0.6710801 0.16379076 0.16439363 0.30350575 -0.14329766 -0.25231975
0.069328904 -0.17517674 -0.28316313 0.075702116 -0.4185916 -0.10855265 0.03924423 -0.22170942

feature.6.bias f4 [16]
00000000: bb38 92bc 1d26 e2bc 54eb 7b3b 2ea9 833d
00000010: f24b 12bd b073 9ebd f9a6 343d 8fe7 073d
00000020: 9938 5cbc 8c3b fdbd 8d51 17be 7dbe 013e
00000030: c781 813d 08db 2fbe 10e4 3bbd 4f42 2c3e
-0.017849317 -0.027606064 0.0038439827 0.06428753 -0.03571696 -0.077369094 0.04410455 0.033179816
-0.013441228 -0.12364873 -0.14777203 0.12670322 0.06323581 -0.17173398 -0.045871794 0.1682217

feature.7.weight f4 [16]
00000000: 401b 863f 51e8 873f d6d6 7f3f 9b38 833f
00000010: 6532 733f 2891 7a3f 74ac 8f3f c6a1 753f
00000020: 7f7a 833f b856 7f3f 7261 943f 80c7 913f
00000030: ed08 7f3f 7877 9f3f 23f5 933f e80f 923f
1.0477066 1.0617772 0.9993719 1.025165 0.9499877 0.9787774 1.1224504 0.9594997
1.0271758 0.997417 1.1592238 1.1389008 0.99622995 1.2458334 1.1559185 1.1411104

feature.7.bias f4 [16]
00000000: 79a4 f63c 4f31 50be 8f4a 78be 0ac9 4c3d
00000010: f6e3 6f3e 154d 353e f034 b6bd a8c8 e0bb
00000020: 70d7 54bd 913d c03e b494 433e 46d0 ba3d
00000030: 9460 68bd a6b1 e33c ff37 7a3d 3349 bb3e
0.030107724 -0.2033131 -0.24247192 0.049996413 0.23426804 0.17705186 -0.08896816 -0.0068598576
-0.05196327 0.3754697 0.19099694 0.09121756 -0.05673273 0.02779467 0.06108856 0.36579284

feature.7.running_mean f4 [16]
00000000: 72d5 63bf 63dd 0ac0 6f47 eabc 8e13 63bf
00000010: 98ad 903f 553b 8cbf 59c0 57c0 6976 d9bf
00000020: bdae 06c0 d042 debd 496f bebf 7c8c 8abf
00000030: af84 03c0 1879 e1bf a0b9 31bc 21f4 03bf
-0.88997567 -2.1697624 -0.028598515 -0.88701713 1.1302977 -1.0955607 -3.371115 -1.6989261
-2.1044152 -0.10852587 -1.4877712 -1.0824122 -2.0549734 -1.761508 -0.010847479 -0.51544386

feature.7.running_var f4 [16]
00000000: 6fe6 ac40 779e c240 01c9 3740 6d0c d640
00000010: bfe3 8a40 2b1a 7540 0940 4c41 f445 7d40
00000020: b5fe 8540 86e3 7940 3386 1241 8069 a640
00000030: adba 8740 4f22 0441 007c f440 028d 8040
5.403129 6.081844 2.8716433 6.689017 4.340301 3.8297222 12.765634 3.9573946
4.187342 3.904512 9.1577635 5.2003784 4.2415376 8.258376 7.6401367 4.017213

feature.9.weight f4 [16, 16, 3, 3]
00000000: 2c8a e13e 2bcd 9c3e 0795 283f 5c42 0d3e
00000010: 8e40 023f 1d7f 933e e81a 653e 052d 893e
00000020: 2c1e db3e d0b6 a23e 6950 c73e 9095 b13e
00000030: 1f94 013f ab31 ab3e a471 f33e 2e31 6dbe
00000040: 731f 9b3e 9454 543f baf9 0dbe b430 8f3e
00000050: a4e3 9dbe 39bd 5b3e 6c77 d23c 1edf 513e
00000060: 7a23 7b3e 1a1f 9bbe 4671 2dbe 7d37 ec3c
00000070: 2102 c2be 699b 2cbf 69ef c3be ae3b 82be
00000080: a388 05be 8407 0dbf 8e82 a2be 6bc2 38be
00000090: e3b0 3cbe 1bd4 4fbe 405c 26bf 10eb 933d
000000a0: 8b65 98bd a6fc 76be c1ea b8bd fdae 3e3e
000000b0: 6dc1 eebe c30e 52be b0a4 b1be 88c9 87be
000000c0: 0b9b 11be cce9 87be 9c03 71be ce70 2cbc
000000d0: 4ffc f9bd 7222 c0be 4163 b73e f206 a8bb
000000e0: 1ee7 38bd f6bf 903e 44f1 4f3e dcc4 ac3c
000000f0: 1f05 9f3e e765 0f3f 972e 853e 6bf9 1a3e
00000100: 96d9 1f3e 5433 52bd fde9 b63d 4e13 b63e
00000110: 3861 da3e bc0d 19be fc92 23be 4f16 863e
00000120: 3b6a fcbd 661a cd3e 25f0 09be 01bb 11be
00000130: 3ee2 bbbe 53ec b8be bce5 28be 9ccf 7b3d
00000140: 4f25 2fbe 3ce8 563e 4698 a0be dca9 72be
00000150: 2579 a13e ad49 8bbd f681 56be 39e3 21be
00000160: 01d6 adbd 2c6c 9fbd 41ab 8dbd 2e17 21be
00000170: c649 273b 93dd 02bf 4ccd 5dbe b5b7 333e
00000180: e71e 23be 2b44 9c3e eff6 cd3e 9e2a e7be
00000190: afde 453e cf22 b93e 2064 cebe 9c4b a4bd
000001a0: 4993 9f3e 66a7 e5bd afbd dab9 1ba4 643d
000001b0: d471 4dbe 2e4f f93d 2f28 633e 4f72 8bbe
000001c0: 50f7 2f3d 2b66 2a3e 7687 c5bd d5ce 85be
000001d0: 72b3 c5be 368b da3d d77d 483e 71d2 d53d
000001e0: f4f4 cb3d aac5 88bd 8276 b9be 8c37 be3d
000001f0: 00f2 b13c 2b5b 173d 0019 703e c7d7 8e3e
00000200: b75f 0f3f e1be 893e 4102 853e 8ac5 033f
00000210: b154 85be 5709 c4be 55bc 3b3e 7ff5 0cbd
00000220: 0f5e 3d3e c2a4 5e3e ffe7 fdbe e90e 20be
00000230: 692f 293d 90a7 01be 73ac 8dbe 9c82 8ebe
00000240: 3faa bd3d 4e0f f4bd 2e06 29be 1653 043f
00000250: 0d45 d23e deb3 493e 5c04 a13d 3420 6e3a
00000260: df00 843e 1200 39be 1208 cc3c 5158 50be
00000270: 7121 e8be 0b6a 393e 0b55 013e e084 b33d
00000280: 6ab0 12bd 8e9d 6e3d a6ab 26bf f054 373e
00000290: 6ba3 d2bc f8fa 2abf 8105 96be 040f 5dbe
000002a0: 3fea b23d 7689 7ebe 950b e4bd 3f65 383f
000002b0: 39a4 283f bb45 303f 0ac9 863e fa51 4c3f
000002c0: 82ec 0c3f 556f c83e 48cf 1c3f d2f0 8b3e
000002d0: 522e ccbe 1cbd 12be befa d13d 8001 90be
000002e0: 6361 103e 342f 553e 7989 943e 4410 c7bd
000002f0: 599b 83be cfde 30be de88 5d3e 6021 eb3e
00000300: 5f61 493e e361 07bf 5eb5 fdbd 9675 063e
00000310: 740b c83e b6bd 0d3c aa10 92be b24e 3bbe
00000320: 165c 7d3e 8916 a1be 1ba6 403e 9ea9 14be
00000330: 53d5 df3d 8971 e43d 0207 55be 79b5 413e
00000340: 909b 353e babf 9f3e aabb 883e 873d 0f3e
00000350: 3929 d33d 57cd d6bd 8043 c93d 8d81 ecbd
00000360: ccd7 7d3d 15c2 dcbc 92f3 843e 5125 07be
00000370: 0157 3b3d d0e3 db3c cdae 893d 4250 d93e
00000380: dce0 983e 35ef a8be 8b58 36be 7923 6b3e
00000390: 33bd 4cbe a978 8bbe 8386 423b e7f9 7a3d
000003a0: 79da b0be 9627 46be f6d4 7f3c 4c49 68be
000003b0: f541 25be c9b6 173e 2dbd c1bd a329 0bbe
000003c0: 7fe1 94bd c20e 7cbd 2777 5fbe 2b51 bb3e
000003d0: 955f acbe fd13 23bf e5e6 b5be 4276 81bc
000003e0: 7e66 a2bd 7754 d7bd cfd0 d7be 7f60 03be
000003f0: b58b 0cbe 788d 7cbe 236c 1fbd ba5d 9ebc
0.4405073 0.3062528 0.658524 0.13794845 0.5087975 0.28807917 0.22373545 0.2679216
0.42796457 0.317801 0.38928536 0.3468442 0.5061664 0.3343633 0.47547638 -0.23163292
0.3029743 0.82941556 -0.13864794 0.27966845 -0.3083774 0.21458901 0.02569171 0.20495269
0.24525252 -0.30297166 -0.16937742 0.028835053 -0.3789225 -0.6742464 -0.38268593 -0.25436157
-0.13040404 -0.5508959 -0.3174023 -0.18042915 -0.18426852 -0.20295756 -0.6498451 0.07222569
-0.07441243 -0.24119815 -0.09029151 0.1862144 -0.46631947 -0.20513444 -0.3469596 -0.26520944
-0.142193 -0.2654556 -0.23536533 -0.010524942 -0.12206327 -0.3752628 0.35817912 -0.005127781
-0.045142286 0.28271455 0.2030688 0.021089964 0.31058595 0.56014866 0.26012108 0.15134208
0.15610346 -0.05131848 0.089313485 0.35561603 0.42652297 -0.14946645 -0.15974039 0.26188895
-0.12324949 0.40059203 -0.13470514 -0.14231493 -0.36696047 -0.361178 -0.16493887 0.06147729
-0.17104076 0.20987028 -0.31366175 -0.23697609 0.31537738 -0.06801162 -0.20948014 -0.15809335
-0.08488084 -0.07784304 -0.0691743 -0.15731499 0.002552615 -0.51119345 -0.21660346 0.17550547
-0.15929757 0.30520758 0.40227458 -0.45149702 0.19323228 0.3615937 -0.40310764 -0.08022234
0.31167057 -0.11213569 -0.00041721525 0.055820566 -0.20062953 0.121733055 0.22183298 -0.27235648
0.042960465 0.16640536 -0.09644978 -0.26134363 -0.38613468 0.10671084 0.19579254 0.10440529
0.099588305 -0.066783264 -0.36223227 0.092879385 0.02172184 0.03695218 0.23447037 0.27899
0.56005424 0.26903442 0.25978282 0.51473296 -0.26041177 -0.38288376 0.18333562 -0.03441381
0.18492912 0.21742538 -0.4959106 -0.15630688 0.04130498 -0.12661576 -0.2767063 -0.27834022
0.092609875 -0.11916982 -0.16506264 0.5168928 0.41068307 0.1969752 0.078621596 0.0009083778
0.25781915 -0.18066433 0.024906192 -0.2034619 -0.45338014 0.18106858 0.12630098 0.08765578
-0.035812773 0.058255725 -0.65105665 0.17903495 -0.02571269 -0.667892 -0.29301074 -0.2158776
0.08736085 -0.24857125 -0.111350216 0.7202949 0.65875584 0.688564 0.26325256 0.79812586
0.5504838 0.3914744 0.61253786 0.2733217 -0.3987909 -0.14329952 0.102529034 -0.28126144
0.1409965 0.20818788 0.29011133 -0.09719899 -0.25704458 -0.17272495 0.21634242 0.459239
0.1966605 -0.5288374 -0.12388109 0.13130793 0.39071238 0.008651188 -0.2852834 -0.18291739
0.24742159 -0.31462505 0.18813364 -0.14517829 0.1092936 0.111544676 -0.20803455 0.18916883
0.17735124 0.31200963 0.26705676 0.13988315 0.10310597 -0.10488384 0.09827328 -0.11548147
0.061973378 -0.026948014 0.2596708 -0.13197829 0.04573727 0.026842028 0.06722794 0.42444044
0.29859054 -0.32995 -0.17807214 0.2296275 -0.19994049 -0.27240494 0.0029682226 0.06127348
-0.3454168 -0.19351038 0.015614739 -0.2268421 -0.16138442 0.14815821 -0.094599105 -0.13590102
-0.072695725 -0.06153751 -0.21822797 0.36585364 -0.33666673 -0.63702375 -0.3552772 -0.01580346
-0.07929705 -0.10514157 -0.42151496 -0.12829779 -0.13725169 -0.24663341 -0.038921487 -0.019331802

feature.9.bias f4 [16]
00000000: 512b 0ebd 12ed 8b3c c2ac 80bd 47a4 b8bc
00000010: 6d10 e9bc f6dc d73b af84 ca3d 178c e13c
00000020: a9a2 313d 15b5 353d 9ba7 c73d 9d53 29bd
00000030: 8ab6 54bc 9f5d a83d fc97 bfbd 6533 6b3d
-0.03470928 0.017080817 -0.06282951 -0.022539271 -0.028450215 0.00658762 0.09888589 0.02753262
0.043368015 0.044362146 0.09748765 -0.041339505 -0.012982974 0.08220982 -0.093551606 0.05742206

feature.10.weight f4 [16]
00000000: c9c5 303f 2ee2 4f3f 485a 583f e9c1 893f
00000010: a7d5 a03f 219b a03f ef1b 223f 0301 883f
00000020: 13c4 8e3f 535a 9a3f 6f14 503f 9928 923f
00000030: 5368 8a3f a4d9 a23f 68a0 933f 4ca6 803f
0.69051796 0.812045 0.8451276 1.0762302 1.2565202 1.2547342 0.63323873 1.0625309
1.1153587 1.2058815 0.8128118 1.141864 1.0813087 1.2722669 1.1533327 1.005075

feature.10.bias f4 [16]
00000000: bf3f 023e 3caf 0e3f 21dc 5ebd e942 7c3c
00000010: 7e6c 843e 2bbc 13bc 3d7d 633e 8508 d1bd
00000020: 38ea 573c c012 a13c 414f 163d 1d6d 9f3e
00000030: 0a16 a8bd f71f e5bc a031 5cbd c0c3 e53e
0.1271963 0.55736136 -0.05440915 0.015396812 0.25864023 -0.009017031 0.22215743 -0.10206703
0.013178401 0.019662261 0.036696676 0.31137934 -0.082073286 -0.027969344 -0.053758264 0.44875908

feature.10.running_mean f4 [16]
00000000: 6cd6 d3be 2d96 a1bf 54fd c3c0 6d5a ebbf
00000010: 443c f5c0 781f 88c0 23f4 8cbe 9c4d 47c0
00000020: e37a 64bf ca99 6dc0 7693 1ec0 45bd 6ac0
00000030: dc30 08c0 c249 abc0 ac9b 613f 5bac acc0
-0.41374528 -1.2623955 -6.124674 -1.8386971 -7.6636066 -4.2538414 -0.27530012 -3.114112
-0.8925001 -3.7125115 -2.4777503 -3.667802 -2.1279821 -5.3527536 0.8812816 -5.3960395

feature.10.running_var f4 [16]
00000000: fdcd 3f41 beb9 3041 3651 3341 da75 8941
00000010: 8174 7441 9f10 8241 2dd9 ea40 f069 9241
00000020: 0a01 8441 2660 7841 97b8 f340 f6e7 7c41
00000030: 60db 5641 a7d5 5741 909f af41 8ced 5b41
11.98779 11.045347 11.207327 17.182545 15.278443 16.258116 7.3390107 18.301727
16.500507 15.523474 7.616283 15.806631 13.428558 13.489661 21.952911 13.745495

feature.13.weight f4 [32, 16, 3, 3]
00000000: 6f8e 53bd 4db8 21bf 41fc b2be 0dd9 b8be
00000010: 775d 9abe 7833 58be 01ba 8cbd c2f2 cbbc
00000020: c3df 703e 9477 04be ab7a fcbe 31e3 4dbf
00000030: 31bc e7bd a04d fdbd cf80 2a3d dcc7 c0be
00000040: 9869 cdbd 9ec5 93be 681c 2f3e f6d1 e33b
00000050: 5b1a 1e3e ef10 70be 90e6 4fbe c8ba 573e
00000060: 82c8 e13d c0bd 173f 8ed9 0a3f a80a ea3c
00000070: b492 05be 08e8 5e3e 28ff 25be 7e0e cdbe
00000080: 81bd ce3e 7823 8dbe db87 78be e1ab a03e
00000090: 6797 b43e 839d a5bd dd8d ab3e 816d 383f
000000a0: 22c6 f43e a96b 2d3e fe38 06be 4a69 913d
000000b0: 8b0a 213e 1ff1 e1be c3b5 8fbd ba3d a7be
000000c0: c738 a4be f370 e8bd 0fd7 d6be 70f7 9cbd
000000d0: 00b9 4a3d 3a45 8e3e 73d8 7cbf 2bfc 90be
000000e0: 728c c23e 1d63 07bf 7322 bbbd 6842 053f
000000f0: 74f9 893e 6d1d b73c be5a 853d 1d13 3fbe
00000100: 496b 23be c516 09be d673 07bd 8843 b93c
00000110: e72d e63e 38b2 173e 5956 d33d cb9f 923e
00000120: ece5 10bd 9545 c1be 3445 893e f992 693e
00000130: 97cc 203e c98c de3e c699 5abd 4c14 263e
00000140: 8cea bb3d 8b0b adbe d0b2 88be 378d 74be
00000150: 46c7 cdbe a9ed 80be e52f 1e3e 579b 00be
00000160: 1d37 a53e 7586 023f 8796 4c3e 8dd7 533e
00000170: f4c5 443e 12ba d03e 674a cc3d 8c6e 9f3e
00000180: cc61 763d 27b7 183e 8253 013f 728a 013e
00000190: 7ccf 8ebc 5b0e 223e e08f 873e 3235 733e
000001a0: 99c5 1cbe fe4c 063f f196 b03d bb6d 05be
000001b0: aef9 a6be 4a5d e2be 995c 6b3e 82eb c2bd
000001c0: 1c06 1cbc 2ca6 6e3e 8ccf c13e ede6 20be
000001d0: c2e1 7cbe eae0 1dbd f261 cc3d c76a cabe
000001e0: dec6 eebd b93b 17be 6575 1bbf 8c39 30be
000001f0: 14e1 92be 5e54 be3c 5b2e 64be a867 613e
00000200: 0682 0f3e decf 6a3d 5fe0 fb3c cff5 b5bd
00000210: 099c 533e 34e3 363e 8741 1d3e c65a c1bd
00000220: 0009 bcbd 6a9e e53e ba93 c7be 3b19 cabe
00000230: ade0 2bbe b3b2 0abe b4e3 d5bd c7a8 e7be
00000240: f0dc 8dbe bc63 5bbe 954a 863e 9aea ecbd
00000250: 5b84 aa3e fcee a83e 1126 4bbe 61ad e23e
00000260: 5cff 813e 6a2f f23e f77f 253f 0c28 e2be
00000270: b1c3 303f cc71 e13e 5293 f6be d476 db3e
00000280: ee45 b63e 191d a8bd 20cd 1c3c 6a30 6fbe
00000290: 0f24 93be 5e42 ad3e 4147 bf3d 18b5 82be
000002a0: 8cb9 31be 0c92 353e 80ca a3be bcfe 16bf
000002b0: 2bdb 92be 188d 8e3d b75e 77be dede 743e
000002c0: 5a67 d73e 6bd0 ebbe b5ee efbd 6f41 0e3e
000002d0: 8cfe b8bd 3025 9e3e c44b 903e 236a 1dbe
000002e0: 8c01 fcbd 0d09 e73e dffa 0ebe 65cb 19be
000002f0: e8ed 84bd b38a 933d beb4 d4be 6b79 13bf
00000300: 0c12 e53d 3f7d 293e 65f3 ecbe c52c 1cbe
00000310: 827e f4be bfc6 d33d 51e4 9ebd 88c3 f13e
00000320: 6efc 863e 022f 1a3e edf2 6abe f32b b23d
00000330: 29a8 fa3d b4ff 96be d48c c33e 336b 273d
00000340: fdb7 ba3e 035d f53e a711 46bd 7777 e4ba
00000350: 008c 113f 2e92 83be a979 92bc d584 22be
00000360: 3451 20bf 0428 12bf 897c 853d 29ce a1be
00000370: a162 8cbe 4695 adbc 45ce d63b ac7d d4be
00000380: 0f67 86be f4ef c53e 0904 e53d 82bd dfbd
00000390: 2b10 913e e7de 733d fcff 6b3e a98d f9bd
000003a0: 1d8c 40be 596f 37be 45ac 63be fbc6 a0be
000003b0: c80c 783e 522d 05bf 2f9d 5ebe 0a29 9b3e
000003c0: 6466 b9bc efea 91bb b9fa 353e f7ff 51be
000003d0: c148 2a3e 144a b63d 83a7 b0be 541c 3cbe
000003e0: e445 313e 540f 70be 81c6 3dbe 3def 453e
000003f0: a2ab 60bc 6874 3e3d f7e3 a13e 1cab 3ebe
-0.051649507 -0.63171846 -0.3495808 -0.36103097 -0.30149433 -0.21113384 -0.06871415 -0.02489603
0.23522858 -0.1293624 -0.49312338 -0.8042479 -0.113151915 -0.123683214 0.041626748 -0.3765248
-0.10029906 -0.28861707 0.1710068 0.0069525195 0.15439741 -0.2344396 -0.20302796 0.21067345
0.11024572 0.5927391 0.5423821 0.028569534 -0.13044244 0.217682 -0.16210616 -0.4005012
0.40378955 -0.27566123 -0.24270575 0.31381133 0.3527176 -0.080866836 0.3350667 0.7204209
0.47807413 0.169356 -0.13107678 0.071001604 0.15726678 -0.44129273 -0.0701709 -0.3266428
-0.32074568 -0.11349668 -0.41960952 -0.076643825 0.049492836 0.2778719 -0.98767775 -0.2831739
0.37997776 -0.5288561 -0.0913743 0.5205445 0.2694813 0.022352898 0.06511448 -0.18659635
-0.15958895 -0.13387592 -0.033069454 0.02261521 0.44956896 0.14814079 0.10319204 0.28637537
-0.03537552 -0.377484 0.2681061 0.22809972 0.15703045 0.43466786 -0.053369306 0.1621868
0.09175596 -0.3379787 -0.26698923 -0.23881994 -0.40191096 -0.2518132 0.15447958 -0.12559257
0.3226861 0.50986415 0.19979297 0.20687695 0.19216138 0.4076696 0.099751286 0.31139028
0.06015186 0.14913617 0.5051805 0.12650469 -0.01743292 0.15825789 0.26476955 0.23750761
-0.15309753 0.5246123 0.0862254 -0.1303014 -0.32612365 -0.442118 0.22984542 -0.09517576
-0.009522941 0.23305577 0.37853658 -0.15713091 -0.24695495 -0.038544573 0.09979619 -0.3953459
-0.11659025 -0.14768876 -0.60726005 -0.17209452 -0.28687346 0.023233589 -0.22283308 0.22012198
0.14014444 0.057327144 0.030746637 -0.08884775 0.20664991 0.17860109 0.15357028 -0.09441142
-0.09181404 0.44847423 -0.38979894 -0.39472374 -0.16784926 -0.13544731 -0.104438215 -0.45245954
-0.27707624 -0.21424764 0.26228777 -0.11568184 0.33304104 0.3299483 -0.1983874 0.44272903
0.25390136 0.473018 0.64648384 -0.44171178 0.690486 0.44032133 -0.4815927 0.42864096
0.35600227 -0.08208675 0.00957039 -0.23358312 -0.28738448 0.33839697 0.093397625 -0.2552879
-0.17355937 0.17731494 -0.31990433 -0.58982444 -0.28682837 0.06960505 -0.24157225 0.23913142
0.42071038 -0.46057448 -0.11715452 0.13892148 -0.09032926 0.30887747 0.28182805 -0.15372519
-0.123049825 0.45124093 -0.13962887 -0.15018995 -0.064906895 0.07204189 -0.41544145 -0.57607144
0.11185083 0.16551684 -0.46279445 -0.15251453 -0.47752768 0.10340642 -0.07758392 0.4721949
0.26364464 0.15056995 -0.22944231 0.08699789 0.12239105 -0.2949196 0.3819338 0.040873718
0.36468497 0.47922525 -0.04835668 -0.0017430623 0.5685425 -0.25697464 -0.017880278 -0.15870984
-0.62623906 -0.5709231 0.06517894 -0.316026 -0.27418998 -0.021189343 0.006555351 -0.4150213
-0.26250502 0.38659632 0.1118241 -0.109248176 0.28332648 0.059538748 0.23046869 -0.12185223
-0.18803449 -0.1791357 -0.22233684 -0.3140181 0.24223626 -0.5202228 -0.21739648 0.30304748
-0.022631831 -0.004453055 0.17771424 -0.20507799 0.16629316 0.08900848 -0.345028 -0.18370181
0.17311817 -0.23443347 -0.18532754 0.19329543 -0.013712795 0.046497732 0.31619236 -0.1861996

feature.13.bias f4 [32]
00000000: 1a28 033d 6c0b b33c 5037 7e3d e026 d2bd
00000010: f2d5 71bd dedb 9fbd 96bb b2bd 1d37 5dbb
00000020: c0b7 56bd c780 bd3d 50c7 fcbc 2e5a 04bd
00000030: 3a2e 823c 98aa 4c3d 870f b23d 1da4 02bc
00000040: 1a2c 783d c7c6 103d 1d80 913d e494 3b3d
00000050: ee15 c0bc 8f64 68bc 657e c7bd 670b acbd
00000060: 2238 fb3c 43c9 51bd 27d9 afbc ecbb 83bc
00000070: 718b 7f3d f271 37bd f087 a83c e458 5dbd
0.032020666 0.021856032 0.06206447 -0.10261321 -0.059041925 -0.07805608 -0.087271854 -0.0033754774
-0.05242133 0.09253078 -0.030856758 -0.032312565 0.015891183 0.04996738 0.08694368 -0.007973698
0.060588934 0.03534582 0.07104514 0.04579629 -0.023447957 -0.014184131 -0.09740905 -0.08400612
0.030666415 -0.05121733 -0.021465851 -0.01608082 0.06238884 -0.0447864 0.020572633 -0.05403985

feature.14.weight f4 [32]
00000000: 8e03 423f d04e 673f fbaf 5e3f f112 5e3f
00000010: 7048 963f 2050 8d3f eda4 853f ba87 883f
00000020: ce91 823f f991 8f3f a08d 743f 51ae 713f
00000030: 83ac 883f aa6d 813f 68c0 973f dd18 6a3f
00000040: 47b6 7f3f f9f2 9f3f 95e2 813f 6f8b 7c3f
00000050: 2afe 5b3f 2d2c 693f 169b 803f 1d5d 823f
00000060: beca ad3f 9986 593f 846a 703f d154 913f
00000070: b797 a73f f507 a13f 84a1 9e3f a921 8d3f
0.75786674 0.90354633 0.86987275 0.8674765 1.1740856 1.1040077 1.0440956 1.066642
1.0200746 1.1216422 0.955286 0.9440661 1.0677646 1.0111592 1.1855593 0.9144419
0.9988751 1.2496024 1.0147272 0.9865026 0.859347 0.9108303 1.0047328 1.0184666
1.3577497 0.84971005 0.9391253 1.1354009 1.3093175 1.2580553 1.2393041 1.1025897

feature.14.bias f4 [32]
00000000: 2563 1cbd e10f 013c f2b0 e2bd b5a1 953b
00000010: c3c1 91be 9d6e 9bbd f584 95bc ecb3 92bc
00000020: 7190 e1be fcc5 9dbe d7b5 5bbe d719 a13e
00000030: 845d 54be 0058 90be fe6a bdbd 8084 5fbe
00000040: e497 90b9 f4fa 05bd 3fa7 85be d416 86be
00000050: 3be7 bebe 14b9 2ebe 9074 cfbe 9fe9 5dbe
00000060: 05b8 d7bd 5fe8 5abe 8d75 9dbd a936 09be
00000070: 0525 00be 8b8d bebe 66f0 97bd 4955 53bd
-0.03818049 0.007877321 -0.11068906 0.004566396 -0.2846814 -0.07589457 -0.018251875 -0.017908059
-0.44055513 -0.30815113 -0.21456085 0.31465027 -0.20738798 -0.2819214 -0.09248923 -0.21827888
-0.00027578988 -0.03271003 -0.2610416 -0.2618929 -0.3728579 -0.17062789 -0.40518618 -0.2167115
-0.10533146 -0.21377705 -0.07688437 -0.13399757 -0.12514122 -0.37217364 -0.07418899 -0.051595006

feature.14.running_mean f4 [32]
00000000: 2422 f0bf 2f05 4c3f 164c 00c0 5a11 efc0
00000010: a282 22c1 6d3e bebf 2382 17c0 9adc 82c0
00000020: fa82 95c0 67b4 71c0 e53f cebf 1939 c7bf
00000030: 98d0 adbf 25c0 36c0 e35d 90c0 5496 b6be
00000040: aab8 5bc0 7d79 53c0 c34a d5bf 43a6 c8c0
00000050: 0c69 9fbe 75d1 37be f648 91c0 a22c 97bf
00000060: 9c94 e0bf 6cb7 1abe c2a0 1fc0 a01a a7bf
00000070: fb18 19c0 892f a8be dca2 13c0 1527 d9bf
-1.8760419 0.7969541 -2.004644 -7.470868 -10.156893 -1.4862801 -2.367318 -4.089429
-4.6722383 -3.776636 -1.6113249 -1.55643 -1.3579283 -2.8554776 -4.511461 -0.35661566
-3.433146 -3.30429 -1.666344 -6.2702956 -0.31134832 -0.17950995 -4.5401564 -1.1810496
-1.7545352 -0.15109032 -2.4941869 -1.3055 -2.3921497 -0.32848766 -2.3068151 -1.6965052

feature.14.running_var f4 [32]
00000000: 6d5f 4c41 a3b6 7941 5ef8 4941 3a67 3041
00000010: 9feb c841 c372 a141 84be a341 5d07 4a41
00000020: b3c9 9041 95d5 3c41 eca6 5741 3cb0 8e41
00000030: e78c 2e41 8555 b941 e28d 9f41 86c6 3f41
00000040: e175 4541 676e 8e41 8328 6441 c2f5 a341
00000050: f1c6 0841 1ec1 4741 f81d ea41 df76 8741
00000060: 620d 0e42 32f1 0e41 ac0f a441 830f eb41
00000070: dff0 df41 9e56 0642 072d 0642 0db3 dd41
12.773297 15.607089 12.6231365 11.025202 25.11505 20.181036 20.468025 12.626798
18.098486 11.802144 13.478252 17.836052 10.9094 23.166758 19.944279 11.985968
12.341279 17.803907 14.259891 20.494999 8.54857 12.484648 29.264633 16.933043
35.51307 8.933886 20.507652 29.382574 27.992613 33.584587 33.543972 27.712427

feature.16.weight f4 [32, 32, 3, 3]
00000000: cd96 883e e676 4a3e 6362 0ebe 109c 983e
00000010: 09df ba3d a45a 9c3d cdbd a63e c13f 7d3e
00000020: 4095 5ebe 0331 1fbe cf82 8ebe 076a b53e
00000030: a9c7 213e aab1 b2bd 2d34 a43e 2cfd fabd
00000040: 0e3b 2cbf b75d 3d3e 7843 9a3e 25a6 4d3d
00000050: 6274 b8bd f075 063e d0ea edbd bf3f 04bf
00000060: 388e 00bd 388a acbe 7d60 0bbf e962 213e
00000070: 7306 5b3e 1acf 16bc dd74 ec3d 3101 a33e
00000080: 673b 743d d02f eabd ab56 633e 5934 2d3d
00000090: 5173 3f3c 9bce a43c 8099 b4be dd2a 30bd
000000a0: 88b7 3a3e 3854 bebe 4dd8 98be e35d 11be
000000b0: 1a51 90be 9a0e acbe e562 433e 8a1a 3c3e
000000c0: aa8e bc3e 8d87 1dbd b2d4 d93d a8d2 393f
000000d0: b7f0 333e 76d5 b2be f9d4 163f cbc1 743e
000000e0: 84b7 ff3e 905f b43e 453c 513d 4164 b2bd
000000f0: 8d02 ba3e 64af 1fbe cf8b 0fbd 331f a4bc
00000100: d095 9abd 471d 0d3e e2b0 d23c 962e 243c
00000110: a01c 853e ce6a 2abe eacc e5bd cd21 9bbe
00000120: 7d12 993c 02b6 d73d 0ccb f73d f6d1 493e
00000130: f99f 6b3d 6f81 ad3e 3dcd aabe bb25 e4bc
00000140: dfaa febc 464f eb3d 753a 033e 6385 9cbe
00000150: 14d4 26be 693a d8be 99e6 85be 34f1 5b3e
00000160: c9e7 02be 58fb 55bf f5dc df3e 9d88 37be
00000170: cd89 ef3d c837 83bd c3a2 d93d 6261 573f
00000180: d679 663e f682 55be bae3 0e3f 0de1 d7bc
00000190: 741a 843e cc97 d33e d2b2 a9be c335 5cbd
000001a0: ab34 af3e d50d 063e e936 2fbd a1d0 0c3e
000001b0: c89f 023b c1a1 6ebe beef c1be d657 533e
000001c0: 5cca ce3d 9f90 4abf ce8a bfbd f147 f1bd
000001d0: fc28 33bf c796 35bd 5ee9 b03c eb9c 713e
000001e0: b05d a93d 79c3 11be 8a4e db3e 5f23 cc3c
000001f0: 73ac 2dbe 0555 b13d 283d 18be 9c89 a3be
00000200: 022d 9fbe fb1e b63c 0cc6 80bd 9d9b c3bd
00000210: 9a1d cabc c3f2 073e 4c8e 09bf 09e5 0e3e
00000220: a254 be3d a249 a43d 5409 3fbd 1706 50be
00000230: 7574 0b3e de9f 48be d63c 0abe 3cc1 9fbd
00000240: 0e95 6cbd 7bc5 8d3d 1cf7 983e 4db2 81bd
00000250: 92be 00be 853b f23c 0f4a babe 32c2 4cbd
00000260: 9d3e 0d3e 2d8e 94be f554 5cbd f2ca cdbc
00000270: d690 1ebf 87d4 9bbd 580e 9f3c c91c 80be
00000280: 5ec9 553e e65c e73e 7687 4ebf 4bc5 64be
00000290: 488e 82be da22 2b3e 7446 cbbd 4dea 333d
000002a0: 221f 953e 3ab3 9b3d 996a 9c3d 6192 40bb
000002b0: 61b9 563e a809 393e eb7a 083e f818 c43d
000002c0: 180b 09be c7a6 e3bc 1ea2 133d 3a62 f8bd
000002d0: 8e04 ca3d 67b6 c8bd 69c4 dabe f540 12be
000002e0: 3b34 00be e087 8abe c65c bfbe 4b87 223d
000002f0: 9806 36be 3349 60be b5d0 443d c65b 503f
00000300: a09e d23d 190d 61be 5682 0fbd c8fa afbe
00000310: 251f 29bd 85bb 1bbf aa72 68be 2c01 0f3e
00000320: 3cc5 10bf a87b acbe d6f1 a93d a596 b9be
00000330: ba58 05bd 3664 763e 7a6f 373e c2ea c0bb
00000340: 2265 21be 3375 55be cfbb 5f3d f0af 0a3f
00000350: 9ec9 603d e5b0 cfbd 3b8c 013f c5b6 953e
00000360: 92de 703d 98a2 493d 935b 63be 92ee 9a3d
00000370: 7c38 743d 4e8a c5be d2ce 75be e39d 84be
00000380: 4f0a f0bd afd8 2a3e a302 03bf 7c68 f7be
00000390: 5c65 693c b2e4 3e3e 4cdd 753e 6c42 e43c
000003a0: c310 b03e b0d5 d33e da88 d53d 3ba3 533c
000003b0: 1093 b33d 3faf 7cbd ac16 43bf c680 81be
000003c0: 5773 98bd b3c9 1d3e 0472 b2be ebde 15be
000003d0: 0379 a8be 3954 abbe ce93 6a3e 62e2 943d
000003e0: ef92 0dbe 3ebd 523e 539b f6bd 1356 93be
000003f0: d2bc c43e f358 003f e1fd 8b3e cf79 e13e
0.26677552 0.19771919 -0.13904719 0.29806566 0.09124572 0.07634476 0.32566682 0.24731351
-0.21736622 -0.1554604 -0.27834174 0.35432455 0.1579882 -0.08725293 0.32071057 -0.1225532
-0.6727761 0.1849278 0.301296 0.050207276 -0.09006573 0.13130927 -0.116170526 -0.5165977
-0.03138563 -0.33699203 -0.54444104 0.15760387 0.21389179 -0.00920465 0.115457274 0.31836846
0.059626963 -0.11434901 0.2220103 0.04228625 0.011685208 0.020118048 -0.3527336 -0.043009628
0.18234074 -0.3717363 -0.29852524 -0.14195971 -0.28186876 -0.3360489 0.19080694 0.18369499
0.36827594 -0.03845935 0.106362715 0.7258706 0.17572294 -0.34928483 0.5891872 0.23902051
0.499447 0.35229158 0.051082868 -0.08710528 0.3633007 -0.1559425 -0.03504544 -0.020034408
-0.07548106 0.137807 0.02571911 0.010020873 0.25998402 -0.16642305 -0.11220725 -0.30299225
0.018685574 0.10532762 0.12099275 0.19709 0.05752561 0.33887812 -0.3335971 -0.027850023
-0.031087337 0.114897296 0.12815268 -0.30570516 -0.16291839 -0.42232063 -0.26152495 0.2147873
-0.12783732 -0.83586645 0.43723264 -0.17923208 0.11696205 -0.06407124 0.106267475 0.8413297
0.22507414 -0.20850739 0.55816233 -0.02635243 0.25801432 0.4132675 -0.33144242 -0.05376221
0.3421987 0.13091214 -0.042776976 0.1375146 0.0019931663 -0.23303892 -0.3787822 0.20638976
0.10097191 -0.79126924 -0.09352647 -0.117813 -0.6998441 -0.044333246 0.021595653 0.23595016
0.082698226 -0.14234723 0.42833358 0.02491921 -0.16960315 0.08658794 -0.1486708 -0.31940925
-0.31089026 0.02223157 -0.062877744 -0.09551165 -0.024672318 0.132762 -0.5373275 0.13954557
0.09293486 0.08021857 -0.046639755 -0.20314823 0.13618644 -0.19592234 -0.1349977 -0.078005284
-0.057759337 0.06922432 0.2987603 -0.06332836 -0.12572697 0.029569397 -0.36384627 -0.049989887
0.13793416 -0.29014722 -0.05379196 -0.025121186 -0.6193975 -0.07608896 0.01941602 -0.2502196
0.20877597 0.45188063 -0.80675447 -0.22340886 -0.25499177 0.16712514 -0.09925547 0.04392462
0.29125315 0.07602544 0.076375194 -0.0029384124 0.20969154 0.1807009 0.1332814 0.09575075
-0.13383138 -0.027789487 0.03604328 -0.1212811 0.0986415 -0.098004155 -0.42727974 -0.14282592
-0.12519924 -0.2705679 -0.37375468 0.039679807 -0.17775953 -0.21902923 0.0480506 0.81390035
0.102841616 -0.21977653 -0.035036407 -0.34371018 -0.041289467 -0.6083301 -0.22699991 0.13965291
-0.56550956 -0.33688092 0.0829808 -0.36247745 -0.03255532 0.24061665 0.17913619 -0.0058873603
-0.15761235 -0.20845489 0.054622468 0.5417471 0.054879777 -0.10141162 0.506046 0.29241005
0.05880601 0.049227327 -0.22202902 0.07565035 0.05962418 -0.3858208 -0.24004677 -0.25901708
-0.11720716 0.1668422 -0.511759 -0.48321903 0.014245357 0.18641928 0.240102 0.027863704
0.34387788 0.41373968 0.10426493 0.012917335 0.08768284 -0.061690565 -0.7620647 -0.2529356
-0.07443874 0.15408973 -0.34852612 -0.14635818 -0.32904825 -0.33462694 0.22907946 0.072697416
-0.13825582 0.20580003 -0.120413445 -0.28776607 0.38425308 0.50135726 0.27342132 0.44038245

feature.16.bias f4 [32]
00000000: 1334 02bd d68d 58bd 8c86 6e3d b5b2 3ebc
00000010: 2226 02bc ec27 d93c 8b94 113d ca72 8a3d
00000020: ca10 2abd 3c57 a1bd e1df 09bd 4c92 debc
00000030: 4cab 17bc 6953 fc3c 3f35 3d3d 5ad7 803d
00000040: e12b 07bd 456c e33c 4dbf 4cbc 77a8 9ebc
00000050: b8f9 6e3d 7c51 d0bc df9e 69bd f9f0 cbbb
00000060: 82fb af3b 8c56 1f3c 5bdf a4bd 8457 99bc
00000070: f011 27bd 92de 593d 2afe 193d 38e9 50bc
-0.031787943 -0.05286964 0.058233783 -0.011639287 -0.007943662 0.026508294 0.035542052 0.067601755
-0.041519918 -0.07877967 -0.033660773 -0.02716937 -0.009257149 0.030801492 0.046193358 0.06291075
-0.03300083 0.027761588 -0.012496782 -0.01936744 0.05834362 -0.02542948 -0.057036277 -0.0062237945
0.0053705582 0.009725224 -0.08050414 -0.018718489 -0.04078859 0.053190775 0.037595905 -0.012750916

feature.17.weight f4 [32]
00000000: a8e8 793f d7e5 8f3f 6b91 903f 0c44 983f
00000010: 5aff 903f 11ca 883f c3f7 7e3f 046c 873f
00000020: 3619 593f 5747 683f 98d9 763f fd04 913f
00000030: 7a1a 8c3f 5585 853f 4fcd 703f 858e 603f
00000040: 1092 8e3f ba3d 8d3f cc0d 883f e709 683f
00000050: 8cfe 803f 1c1b a73f 698a 7a3f 0cff 903f
00000060: fcc3 bb3f ae3b 5b3f a7fe 963f b090 783f
00000070: 6508 6b3f 0365 863f 646a 703f 4a81 6a3f
0.9762063 1.1242017 1.1294378 1.1895766 1.1327927 1.0686666 0.99596804 1.0579839
0.84804094 0.90733856 0.9642577 1.1329647 1.094558 1.0431315 0.94063276 0.8771747
1.1138325 1.1034462 1.062921 0.9064011 1.0077682 1.3055148 0.9786745 1.1327834
1.4669185 0.8563794 1.1796464 0.97095776 0.91809684 1.0499576 0.9391234 0.9160353

feature.17.bias f4 [32]
00000000: da82 6fbe 8a4a 51be 3d10 a7be a980 f1bd
00000010: 94a3 053e 64aa a63d 447a 0c3f e625 3a3e
00000020: 14df 1cbd b2a7 69be 264d 0a3e b4f8 8dbe
00000030: c3c5 153e 789b a1be 51b8 033e 0b73 a43c
00000040: b2e7 d73e 1baf f1be 9da0 6ebe fac4 2bbf
00000050: 0126 4bbe 2871 88be 5cd5 8bbe 5738 85ba
00000060: 5579 233f 467b 01be 9360 0fbf 9817 893d
00000070: 4cf7 1d3d e5cc 22be 80ed b1bc 7a8d 5c3d
-0.2338976 -0.2043859 -0.32629576 -0.11792118 0.13050681 0.08137968 0.5487406 0.1817852
-0.03829868 -0.22817877 0.13505992 -0.27728808 0.14626221 -0.31563926 0.1286328 0.020074388
0.42168957 -0.47203907 -0.23303457 -0.6709744 -0.19838716 -0.2664883 -0.27311218 -0.0010163885
0.63857013 -0.12644681 -0.56006736 0.06693953 0.03856592 -0.15898474 -0.021719694 0.05384586

feature.17.running_mean f4 [32]
00000000: 3b5a e4bf 7637 89c0 32a6 74c0 8b60 7fc0
00000010: 78c6 9fc0 f23e 31bf d0bb 2740 5a65 5fbf
00000020: cbed 55bf 1222 96c0 2e27 16c0 76e4 d6bf
00000030: 1b4e 18c0 78ef ffbd c018 dcbf c0cf 09bf
00000040: aafe 5cbe ebe2 25c0 9e18 ecc0 97e3 9cc0
00000050: 52e3 5dc0 3422 afc0 dd4b 14c0 c5bb 3640
00000060: 7ed6 d43f de9b 8bc0 f67d 9ac0 d354 12c0
00000070: 0e65 10c0 d89b 07c0 7d18 89bf 4fda 0340
-1.7840036 -4.28802 -3.8226438 -3.9902675 -4.992977 -0.6923667 2.6208382 -0.87264025
-0.8356597 -4.691659 -2.3461413 -1.6788471 -2.3797672 -0.12496847 -1.7195053 -0.53832626
-0.21581522 -2.591975 -7.378005 -4.902782 -3.4669995 -5.472925 -2.3171303 2.8552105
1.6627958 -4.3627768 -4.827876 -2.2864273 -2.256168 -2.118887 -1.0710598 2.0601995

feature.17.running_var f4 [32]
00000000: 6d3d 7041 3621 8641 00aa 4041 e9d0 6041
00000010: 25ae 8141 d57e 1841 ddcc 8341 8d6b 9141
00000020: 1043 ea40 e0da 0e41 9a22 9e41 09f8 9c41
00000030: 262f 5441 4ccc 4f41 105b 4341 69d9 1741
00000040: 086f 6741 62f0 5441 730d 9241 4e6b 1e41
00000050: c7ed 1c41 8df7 8d41 e14b 1541 be55 b541
00000060: e950 2542 a0d1 2341 3bc5 a241 0799 2941
00000070: ba7a ee40 2fbf b841 7a3a 1441 f1ac 5a41
15.014997 16.766216 12.041504 14.051003 16.210032 9.530965 16.47503 18.177515
7.3206863 8.928436 19.766895 19.62111 13.261511 12.987377 12.209732 9.490579
14.464607 13.308687 18.256567 9.901197 9.808051 17.745874 9.331025 22.666866
41.329014 10.238678 20.346304 10.59986 7.4524813 23.093351 9.2642765 13.667222
